weights/tissue_fast/model.pth (torch, 34547 bytes, 20 tensors)

weight f4 [5, 1, 3, 3, 3]
00000000: e6e1 ec3d 473d c63e 78e4 7c3e 89f8 ccbd
00000010: 2b17 093f bd20 d03d c244 e0be 06c1 ecbb
00000020: c0dc eebe 0546 2abe 6619 bf3e 8eee 4e3e
00000030: aec4 cabd f52f 353f 4029 903e f450 a1bd
00000040: 1319 ee3e 8893 35be b73a 13be dfff 66be
00000050: 0409 87be 7685 abbd 1bd6 233d 9fd4 a7be
00000060: acf0 e9be 65c9 f03d c43d eebe 7169 973e
00000070: 45ab 95bc 2eef 02be 0900 f4bd 2b9c dfbe
00000080: b74b afbe b348 cdbc 8d58 38bf e86a 94be
00000090: f2af 923d a0c5 173e 4172 8d3e 9630 0b3d
000000a0: 39c3 4f3e c7d6 453f 79ca afbe 8bb0 f5bd
000000b0: f0b6 f13e b804 713e cbb7 c83d de4d df3d
000000c0: 8ab8 bebe e78d 5dbe 4521 bc3e 6bb5 d6be
000000d0: 84ac e7be a52c a33e 77d7 9abe e079 09be
000000e0: 3b53 1abe ae12 f93b ba39 643e 5086 66be
000000f0: 1586 5a3e a0ff e93e e97f f3be 5451 ecbe
00000100: 1f5b c0bd ed18 a7be beb3 833e e17a 173f
00000110: 5ea3 b63d 543a 7e3e 714d 6a3f 4475 eebd
00000120: 3fc9 4fbe e08d 1cbe 9816 8cbd 63c8 23be
00000130: 195e 1d3e 3125 6cbe f319 4cbe 45bd af3e
00000140: ac9e bcbe 102c 9b3c 9803 0ebc a6c7 933b
00000150: 3e37 25bc 730c 72bd 2056 233b 4148 86bd
00000160: ed99 8bbd cdb4 f4bd 5a35 a3bc fb57 c8bc
00000170: de31 173c f98f a7bc 377d 3f3d aadf 4abd
00000180: c763 5d3d 6923 883f cfb9 90bd 3f40 8dbc
00000190: ea38 1dbc 6fbe faba f316 b0bc a4a1 8bbd
000001a0: e87d 6dbc 3ee9 7ebe e327 243e 566d 76be
000001b0: f59b 75bd f5ac 893e 73a5 37bd dfb5 3dbc
000001c0: 5683 80bd 6e03 8cbd 0655 9abd d0f8 313d
000001d0: 7395 8abd 3ea2 013e ff80 ed3e 568f 0c3d
000001e0: a2f1 a8bc 3701 613e b633 fd3c 5915 7dba
000001f0: bc03 a43e da78 8fbd 8381 313e e6dd a4bd
00000200: 2b33 2b3e 83f6 36bd 24ff 31bd 233b bfbd
00000210: a684 c4bd 31d3 eabb fc5f 9ebd
0.11566524 0.38718626 0.24696529 -0.10008342 0.53550977 0.10162494 -0.43802458 -0.0072251586
-0.46652794 -0.16628273 0.37324065 0.20208189 -0.09900795 0.707763 0.2815647 -0.07876769
0.46503505 -0.1773206 -0.14377867 -0.22558545 -0.26374066 -0.08375065 0.03999911 -0.32779405
-0.4569143 0.11757163 -0.46531498 0.29572633 -0.018270144 -0.12786552 -0.11914069 -0.43673834
-0.34237453 -0.02505908 -0.7201012 -0.28987813 0.07162465 0.14821482 0.2762623 0.033981882
0.20289315 0.7728085 -0.34334162 -0.119965635 0.47209883 0.23536956 0.09800681 0.10903524
-0.37250167 -0.21636163 0.36744133 -0.41935286 -0.45248806 0.3187 -0.30242512 -0.13425398
-0.15070812 0.0076011037 0.22287646 -0.22512174 0.2134021 0.4570284 -0.47558525 -0.46155798
-0.0939238 -0.32636204 0.2572307 0.59171873 0.089178786 0.24826938 0.91524416 -0.116434604
-0.20291613 -0.15288496 -0.06840247 -0.1599441 0.15367927 -0.23061062 -0.19931774 0.3432409
-0.36839807 0.01894191 -0.008667849 0.004509884 -0.010083972 -0.059093904 0.002492316 -0.0655675
-0.068164684 -0.119485475 -0.019922901 -0.024456015 0.009228198 -0.020454394 0.046750274 -0.04952971
0.054050233 1.0635806 -0.0706669 -0.017242549 -0.009596089 -0.001913024 -0.021495318 -0.0681794
-0.01449535 -0.24893662 0.1603084 -0.24065146 -0.059963185 0.26889768 -0.04483552 -0.011579006
-0.0627505 -0.06836592 -0.07535748 0.043450177 -0.067667864 0.12659547 0.4638748 0.034316383
-0.020623032 0.2197312 0.030908447 -0.0009654365 0.320341 -0.070054725 0.17334561 -0.08050136
0.16718738 -0.044668686 -0.04345621 -0.09337451 -0.09595613 -0.0071662893 -0.07733151

bias f4 [5]
00000000: 6d05 0abe 17a8 3a3c cb9e 95bd 9ac9 47bc
00000010: 2b3a 2cbe
-0.13478632 0.011392615 -0.07305678 -0.012194062 -0.16819064

weight f4 [5, 5, 3, 3, 3]
00000000: d8f2 d5be 15fa 0cbf 16b7 aabf 0fe0 f1be
00000010: 9835 c0be 44e9 1bbf 12f2 7fbe 3696 06be
00000020: 050d 623d 971f 30bf 37d5 aabe 3d56 c6be
00000030: d36b 00bf 16c7 cc3f f030 a73d 1289 d2be
00000040: ac78 c73d 25ab 85be 4d77 96be 0e28 5abf
00000050: b55f 15bf 7d4d fdbd f49e 843e 510d 21be
00000060: cc13 44bf 5c72 ba3e 363d bcbe 9725 f7be
00000070: e17d f9bb 57c6 37bf 4adb 59bd c36f ec3d
00000080: 4447 cf3d dd18 853e 9852 f03d 433c f73d
00000090: 437f 8fbe 64c2 cebf b58c 7dc0 0fe0 0b3b
000000a0: e75c 47bf da8a 233f ef0a 8ebe 1256 543e
000000b0: 8fe1 783b 70c7 6e3e 0ae1 9ebf ab0d 52c0
000000c0: f762 85be 5dc1 09bf 6c38 d0bf 9db5 a1be
000000d0: 11f7 7ebe 79ec 473e 5528 92bd 7f97 e8be
000000e0: 4f89 7abe 3925 a6be 1eff 9fbe 813b 36be
000000f0: ff01 01bf 2c26 8bbf 139c 21be 58cf 70be
00000100: b14e 003f 1dcd 153e d0c9 4cbf e244 ab3f
00000110: 0f31 513f b608 edbe e2da fdbf 1be5 393f
00000120: e167 b6bc d48b a2bd d69b a8bd 6baf acbd
00000130: c053 d7be 7392 cfbe 4b62 29bf cb70 39bf
00000140: d35f 45bf 6516 8c3d 88c8 e2bd 3ba9 28bf
00000150: dc98 0dbf e4c2 7f3d d8d2 c53e a9ed ac3e
00000160: 4ce0 273e 0c7d d33d ae26 fdbe 1d8a a03e
00000170: b67e 983c dd51 4abd 34ee 103e 726c e13e
00000180: 5acd e93e 66fa 10bf 41ee e2bd 2bcf 683e
00000190: 9bbf 99be 3e97 c7be 70f4 683e 0039 f23d
000001a0: 4f71 92be 9bdd 113e 3e8d 383e 5fcf aa3e
000001b0: cc7b a3bd 5d89 afbe 0add 63be 434e 87be
000001c0: c963 f7be ecfd 8f3e fdc8 cf3e 7a37 7abe
000001d0: daa4 b7be ef1e 4ebe e17f 993e 6250 323c
000001e0: 5eb4 5bbe e0c6 373f af9c 243f 8ae7 71be
000001f0: d18b 9a3e c248 3f3e 3f0b fcbd f698 e7bd
00000200: f53e 4cbe 0456 bcbd fe7f 47be bed8 003e
00000210: 0d06 8ebd eef8 7e3d 71bf 5f3e 96c1 eebc
00000220: 5854 eebd 6d8c 42bd 20e2 803d 9f95 e83b
00000230: 50b3 8c3e fe7d 4cbd 037c 21be d556 55be
00000240: 06b7 93bc 2634 bbbd 487a 3abe b890 ba3c
00000250: 3234 063c a39d 4ebc 9d21 9bbd c470 b5bc
00000260: c276 54be a08a f3bc 86d5 a9bd 8f61 ebbc
00000270: 13aa 0fbd 08ae c3bc 5073 b4bd 45dc 06bd
00000280: 1e3d b33c 0cb8 1fbe f9e7 7abd c4b5 b0bd
00000290: 0008 29bd 4c8a d1bb d1ce eebd 093d b0be
000002a0: d790 d0bd 2b6c 10be 071f 0b3e 0e8d 01bd
000002b0: 7062 47bb 21fc f73d b6eb 823b 39ce dfbc
000002c0: bdfd e53b 3566 0a3d 12cd 6a3c 6541 d8bb
000002d0: 39fc acbc 543f 00bc 480d c1bd 4722 303d
000002e0: d8a8 d73d 575e 8a3d c569 b6b9 050a 3dbc
000002f0: eae8 a5bb 8718 6abd fcb7 353e aaf0 663d
00000300: 4fb7 b8bd 15bc 963d 7235 96be 4dbb 2dbe
00000310: 3acc 80bd 8096 023c 9dfb 2ebd 30eb f23c
00000320: 6f1b 9dbc e694 00bd ac15 44bd 7e4e 50bd
00000330: 4f8b c5bc b475 a8bc 1c23 133d 11cd a4bc
00000340: f50c febc aa42 1fbd 0513 79bd b1d5 4ebd
00000350: a518 b7bd 782a 1ebe 17f4 afbd c1ae 57bd
00000360: 5b04 2fbd 2dd1 603c cf6b 8c3e 1a23 953d
00000370: 5e2a ddbd 199c eabe 7bb3 a33c a89c 463d
00000380: aa6e a43e dbf3 af3b f27b 4cbd 7261 04bc
00000390: d679 8abc 19a5 efbd 0f20 e23a b069 293d
000003a0: 90a9 593c 971a 3c3d c4b6 9c3d 1a99 833d
000003b0: 7070 ce3b 1ce3 013e 2785 a83d dbd0 3c3c
000003c0: d7e9 803d 18b2 3d3c cbed 79bd 495a 78bd
000003d0: b591 983b 038a e2bd 7b55 03be 6379 033d
000003e0: f92a 4a3e e711 31bd 7565 843e 5037 bd3e
000003f0: 4c09 99bc 8fc6 293c 6775 d33c 30d8 d5b9
-0.41786838 -0.55069095 -1.3337123 -0.47241256 -0.3754089 -0.6090281 -0.24994686 -0.13143238
0.055188198 -0.687982 -0.33365795 -0.3873767 -0.50164527 1.5998256 0.08163631 -0.411202
0.09739813 -0.26107135 -0.29387894 -0.8521737 -0.5834916 -0.12368295 0.25902522 -0.15727736
-0.7659271 0.36415374 -0.3676545 -0.48270866 -0.007613883 -0.7178702 -0.053187646 0.11544754
0.10121015 0.25995532 0.117345035 0.12072041 -0.2802678 -1.6153073 -3.961713 0.0021343266
-0.7787613 0.63883746 -0.27742717 0.20735958 0.003797624 0.23318267 -1.2412426 -3.2820842
-0.26052067 -0.53810674 -1.6267219 -0.31583872 -0.24898936 0.19523801 -0.07136599 -0.45428082
-0.24466442 -0.32450274 -0.31249326 -0.17796136 -0.5039367 -1.0871024 -0.15782194 -0.23516595
0.50120074 0.14629026 -0.7999544 1.3380396 0.8171548 -0.46295708 -1.9832423 0.7261521
-0.02226633 -0.07936826 -0.08232848 -0.08431896 -0.42056084 -0.4054142 -0.6616561 -0.72437733
-0.7709934 0.06840209 -0.110734046 -0.65883225 -0.5531137 0.06244172 0.38637424 0.3377507
0.16394156 0.10326585 -0.49443573 0.31355372 0.018615108 -0.049394477 0.14153367 0.4402805
0.45664483 -0.5663208 -0.110805996 0.22735278 -0.30028996 -0.38982576 0.22749496 0.11827278
-0.28602073 0.14244692 0.1802263 0.33361337 -0.07982597 -0.34284487 -0.22252288 -0.26426896
-0.48318318 0.28123415 0.4058303 -0.24435225 -0.3586796 -0.20128988 0.29980376 0.010883423
-0.21455523 0.71787834 0.6430158 -0.23623481 0.30184796 0.18680099 -0.123068325 -0.11308472
-0.19945891 -0.09196094 -0.19482419 0.1258268 -0.06934748 0.062249117 0.21850373 -0.029145043
-0.11637181 -0.0474972 0.0629313 0.0070979143 0.27480555 -0.049924843 -0.15769963 -0.20833905
-0.018031608 -0.09140806 -0.18210709 0.022774085 0.008191155 -0.012610826 -0.075747706 -0.022148497
-0.20748428 -0.029729187 -0.082926795 -0.028733043 -0.035074305 -0.023886696 -0.088110566 -0.03292491
0.021879729 -0.15597552 -0.061256383 -0.08628419 -0.041267395 -0.00639466 -0.11660541 -0.34421566
-0.10183876 -0.14103763 0.13586055 -0.03162866 -0.0030423664 0.12108637 0.003995384 -0.027320014
0.0070187734 0.03378888 0.014331119 -0.0065995925 -0.021116363 -0.007827599 -0.09426361 0.04300144
0.10530251 0.06756275 -0.0003479255 -0.011538033 -0.005063166 -0.057152297 0.17745966 0.05638186
-0.09019338 0.073600926 -0.2933765 -0.16965981 -0.06288953 0.007970452 -0.042720426 0.029653162
-0.01917812 -0.031392 -0.04787223 -0.050856106 -0.02411428 -0.020563938 0.035922155 -0.020117315
-0.031012038 -0.038881935 -0.060809154 -0.05049676 -0.089402474 -0.15445888 -0.08591478 -0.052656893
-0.042728763 0.013721746 0.27426 0.07282086 -0.107990965 -0.45822218 0.019983044 0.048489243
0.3211568 0.005369646 -0.04992289 -0.008079873 -0.016903799 -0.11701412 0.0017251986 0.041360557
0.013285056 0.045923796 0.07652047 0.06425686 0.0063000247 0.12684292 0.08228522 0.011524404
0.062946014 0.011578105 -0.061017793 -0.060632978 0.0046560415 -0.1106148 -0.12825577 0.032098185
0.19742955 -0.043229964 0.25858656 0.36956263 -0.01868119 0.010362281 0.025812818 -0.00040787598

bias f4 [5]
00000000: 6f0f 17be f0e5 abbc 9ee4 9a3b 9eb7 0cbd
00000010: 4c27 dbbb
-0.14751981 -0.020983666 0.0047269603 -0.0343548 -0.006688034

weight f4 [5, 5, 3, 3, 3]
00000000: 44c4 89bf 6745 8bc0 7b94 b6c0 3d3d dc3e
00000010: be5f 85bf cda9 4ac0 2f5f 16bf ad23 873e
00000020: f555 fd3d 8498 86c0 a751 48c0 5ce2 013f
00000030: e400 133f eccc 91c0 ea7b 90c0 942e 3cbf
00000040: d8ef 003f 0a1a 343f 386a d2c0 8d5f bbc0
00000050: 60a9 12bc 2ca3 c1bc e50c f5c0 e22d 03c0
00000060: a116 96be 5042 2e3c f103 c43e 723c 1f3f
00000070: 189e 7dbe 8807 4d3e d344 e73e 8c92 903c
00000080: b347 ad3c dc80 a03d 5e29 313e 7a53 083f
00000090: a1e7 f6be ab5e 1ac0 40e2 bcbf 2d6b 87be
000000a0: 0b4e bebf 58fe 86bf 9d80 473e 6bdf c6be
000000b0: a6ec 83bd 724c 603e 7937 c93f 27f7 22bf
000000c0: cde9 663e a4cb e5bc a960 0ebf cc00 983c
000000d0: 78d7 acbc 805c f33e 4dba 2bbd 316a 913d
000000e0: 7cbf 5dbe 0771 e73d 09ee cdbd 2f43 f5bd
000000f0: e1a9 353e 6517 4cbd 95f0 c7bd e07e 6fbc
00000100: 23fe 7d3e 4d8c 18be 6a22 5f3e f7e8 b0be
00000110: 3e4c c8be 914b fabd 0b56 d5bc b279 6b3d
00000120: 95a5 08be a251 c6be e088 50bf 2813 18be
00000130: c2ac 9abe bb01 d1bd 6143 0cbe 2145 1a3d
00000140: ad35 c83c e422 c9bc de06 95be 11ed 4bbd
00000150: d54e 9f3e d4f5 abbc c187 a6bb 3c0d 013f
00000160: 9b27 493e 03c0 193f e946 8bbf 0222 9bbe
00000170: ebe9 87bf 5a68 463c 6bc3 2dbf 57d1 2bbf
00000180: 6b4d cc3e 4041 b7be 047b 97bb 18a2 f0be
00000190: eca4 a5bf dd88 43c0 c5d4 d33e 8660 a73d
000001a0: af90 a1bf 5050 393f f59b df3e cb83 02be
000001b0: 66f3 05bd 4779 e1bd 7c93 5f3d 98d0 963d
000001c0: 87c8 183e 5342 0b3e c11f 963c a4e2 d03d
000001d0: b9be 1bbd 8693 9f3d 1a7e 41bf d224 ecbf
000001e0: f4b0 c4be 1b7f fbbd 8f39 b7bf caec 7bbb
000001f0: fc1e 8abd 3cb4 a03e 2150 483d e691 2d3e
00000200: d922 c2bf 2184 763e d913 043f cff8 aebe
00000210: e4b4 263c a63b bcbe 3b31 183f 26c2 86bb
00000220: 23c4 14bc eefd 3ebb 63ff 02bc b058 3fbc
00000230: 6b66 e3bb 8f6a 30bc 04c6 9ebc 1eba 56ba
00000240: 2a2c 9bbc ad35 9dbc ce5b 9ebc e6db 00bd
00000250: c8a6 01bd 335f e6bc 83f8 67bd 03e5 91bd
00000260: f781 80bc 25a5 4dbc 1706 6ebc 1a13 88bc
00000270: 6c15 23bd f467 30bd 4815 92bc d791 a7bd
00000280: 1a7d 6dbd 5b40 47bc 8b0d f6bb 6f81 f0bb
00000290: 18f9 9739 1a3c 8ebc 8d43 68bc 3a5b 8039
000002a0: ddd9 19bc e7d1 4bbb 26f6 efbb 616b 0cbc
000002b0: de12 87bb a3e5 71bb 9c47 8bbc bc9a ebbb
000002c0: 2193 263c a6b0 033d 72cb e1bc 1f66 d43b
000002d0: 0c8f b83c b7fc b6bb 2104 3f3c 7829 033e
000002e0: d765 943c bd8f c03b 558d 693e f26e 09bd
000002f0: 4f60 e73b a0a7 41bc 98f0 debb fa13 12bc
00000300: 6a82 90bb 5829 4ebb ee48 8ebb aa5e 7f3a
00000310: 6e97 55bb 0058 5dbb 8292 85bc 4b5b bcbb
00000320: 548a 72bb 8fd7 0abd 4082 bebc f9a4 683a
00000330: e80f 3bbe 7d97 8ebc 7b5b 1dbc c2fd 9cbc
00000340: 3d7a 90bb 2332 3bbc f519 7b3c 1aa7 f93b
00000350: 214c c1bb 225b 2fbe c33c ddba cfdb 8abc
00000360: 6e2b 0dbc ffbd a43a 2ec2 12bb 1036 60bc
00000370: 5f6e 62bc f1f6 36bb 29e6 22bd 5aa4 50bc
00000380: 8fc4 c3bc 3d8d b03c 229c 913c ca38 39bc
00000390: 0325 253d d4f9 513d ca12 20bc 0205 163f
000003a0: 2321 063e aff9 c1bb 0d0b 35bc b2d7 573b
000003b0: cdcd 5ebb 1c88 e13c 694d 8b3b 2a9f 983b
000003c0: 5027 7ebe ad8a 5abb 7b16 18bc 5c8d 153b
000003d0: 3d44 4c3a 0702 a4bb f300 b23a 0eb0 443b
000003e0: 5a1e 70bb 0934 803a 6924 2f3b 1ef4 0ebc
000003f0: 6515 8b3a fca6 443b 2ca9 38bb 905d 383c
-1.076302 -4.352222 -5.705625 0.4301547 -1.0419843 -3.1666138 -0.5873899 0.26394406
0.12369911 -4.2061176 -3.1299837 0.5073602 0.57423234 -4.556265 -4.515126 -0.7350857
0.5036597 0.7035223 -6.575466 -5.855414 -0.008951515 -0.023637377 -7.657824 -2.0496755
-0.2931414 0.010635927 0.38284257 0.6220161 -0.24767339 0.20022404 0.45169696 0.017648004
0.021152353 0.07837078 0.17300937 0.53252375 -0.48223594 -2.412028 -1.4756546 -0.26448956
-1.4867567 -1.054637 0.19482656 -0.3884233 -0.064416215 0.21904162 1.5720054 -0.63658375
0.22550125 -0.028051205 -0.5561624 0.018555067 -0.021098837 0.4753151 -0.041925717 0.071003325
-0.21655077 0.11300855 -0.10055167 -0.11975705 0.17740585 -0.049827 -0.09762684 -0.014617652
0.24803977 -0.1489727 0.21790472 -0.34552738 -0.39120668 -0.122214444 -0.026042005 0.057489105
-0.13344415 -0.38734156 -0.81458855 -0.14851058 -0.3020993 -0.10205408 -0.13697578 0.037663583
0.024439657 -0.02455277 -0.29106802 -0.04978663 0.31114832 -0.020991243 -0.005082101 0.5041082
0.19644015 0.6005861 -1.0881015 -0.30299383 -1.0618261 0.01210984 -0.6787631 -0.671163
0.39902815 -0.3579197 -0.004622819 -0.46998668 -1.2940955 -3.0552285 0.41373268 0.08172707
-1.2622279 0.7238817 0.43673673 -0.12745588 -0.032702826 -0.1100946 0.05458401 0.07364005
0.14920245 0.1359952 0.018325688 0.10199478 -0.038023684 0.0779181 -0.7558304 -1.8448737
-0.38416255 -0.12280103 -1.431444 -0.0038440698 -0.06744191 0.31387508 0.048904542 0.16950187
-1.5166885 0.2407384 0.51592785 -0.341742 0.010174964 -0.36764258 0.5945012 -0.0041124998
-0.009079966 -0.0029143053 -0.007995459 -0.01167886 -0.0069396994 -0.010767593 -0.01938153 -0.0008191186
-0.018941958 -0.019190634 -0.019330885 -0.03145971 -0.031653196 -0.028121566 -0.056633484 -0.07123759
-0.015686972 -0.012551581 -0.014527819 -0.01661067 -0.03981535 -0.043067887 -0.017832413 -0.081821136
-0.057980634 -0.01216134 -0.0075089387 -0.0073396484 0.00028986554 -0.017362643 -0.014176262 0.00024482032
-0.009390322 -0.0031100453 -0.0073230444 -0.008570523 -0.004122122 -0.0036910556 -0.01700192 -0.0071900766
0.010166914 0.032150887 -0.02756283 0.0064819003 0.022529148 -0.005584325 0.011658699 0.12808788
0.018114967 0.00587651 0.2280782 -0.03355307 0.0070610414 -0.01181975 -0.0068035834 -0.008915896
-0.004410078 -0.0031457748 -0.00434219 0.0009741584 -0.003259148 -0.0033774376 -0.016305212 -0.0057481877
-0.003700872 -0.03389698 -0.023255467 0.00088746805 -0.18267787 -0.01740622 -0.00960433 -0.01916397
-0.004409103 -0.011425528 0.015326013 0.007618797 -0.005898968 -0.17124608 -0.001687907 -0.016950516
-0.0086163115 0.001256883 -0.0022393572 -0.0136847645 -0.01382026 -0.0027918185 -0.03977028 -0.012734497
-0.023897437 0.021551723 0.017774645 -0.0113050435 0.0403185 0.051263645 -0.009770105 0.5860139
0.13098578 -0.005919657 -0.011049998 0.003293496 -0.0033997179 0.027530722 0.0042511714 0.0046576457
-0.24819684 -0.0033346817 -0.0092827035 0.0022819852 0.0007792151 -0.0050051245 0.0013580605 0.0030012163
-0.0036639185 0.0009781133 0.0026724583 -0.008725194 0.0010611234 0.0030006757 -0.0028177006 0.011252776

bias f4 [5]
00000000: fda2 403e 7004 273d 7eff 02be 5a56 7f3d
00000010: 95e5 723e
0.18812175 0.040775716 -0.12792775 0.06233821 0.23720391

weight f4 [5, 5, 3, 3, 3]
00000000: 6fd6 0e3e 116d dd3d 68b7 013e 8e54 053c
00000010: 5a87 e4b9 9c27 b33c d946 093c 0633 303c
00000020: ace0 103c bfa3 be3d 4a81 663d 7704 bc3a
00000030: 5470 6f3a 6c83 2bbb 5a6e 6abc 2a2c 803c
00000040: 3f45 2c3c 0ab5 943c 1a3e 293e c99c 133e
00000050: fa7d 833d ed4e 013d f27e ed3d 286c 223d
00000060: 0f4b faba 24e9 5dbc 1ce9 36ba cc35 163e
00000070: c651 cd3c 6f60 c13d b3a7 03bb d096 373b
00000080: 7dea cebb b487 7f3c 7a5f de3b 8426 a63d
00000090: add4 483d bec0 943c 38df 813c 2554 1dbb
000000a0: 73a7 0b3b 9fae 3439 041a a03b 4a54 7b3b
000000b0: 086a 003c 3a76 4d3d 98c4 0d3d cc09 183f
000000c0: 9039 c5ba 33d8 0a3c f5b0 7abc 5cba 003c
000000d0: c85a b2bb b516 803d 9f77 af3c 254b 983c
000000e0: 5373 7c3c 7dc4 2fb9 561a e339 6f17 2b3a
000000f0: 8375 bfba f084 f538 a70b af39 2358 353c
00000100: 4ba6 8a3c a6a3 df3b eba3 5439 c200 373a
00000110: 2c77 303b 0f44 8cb9 3f01 493a c9d3 38bb
00000120: bc23 b93c 733c 853c 546d 973b 5ce5 babb
00000130: c539 873b 094b 173c 53e3 0abb 47af 82ba
00000140: ada1 13bb df7c 53ba 13b1 873c 20c5 57bc
00000150: c35d b4bb fcab 3fbb 3163 82bb 9843 a6bb
00000160: 5975 c1ba fd84 ceba 978b 683d e4ec 1b3d
00000170: 1103 b4bb eb6b bdbb e579 d93b 69c8 a93a
00000180: 4ea7 6abb 6eaa 14bb fa4b 11bb bef3 713c
00000190: 5be6 b7bc 9531 25bd f8c9 a4bb 2620 18bb
000001a0: 4888 b0ba 2b96 823b fa4d 4fbb d74b ae39
000001b0: e0c5 fb3d bd17 ae3d 1dba 9d3d 6e26 3ebb
000001c0: 3329 fb3b ca83 6f3c 261f 383c 2998 dc3b
000001d0: 1495 9b3c 030c 4f3d 834f f73c 24aa 133d
000001e0: 178b 833b cf46 bd3b a51e cd3b b926 fb3b
000001f0: a528 dfbb 21ba 393c e33b 0a3e dc2a c63d
00000200: 723d 093d de01 b6bc d8c8 a03c d977 0b3c
00000210: 2fcd 99bb c564 2a3b b031 ab3b a049 0b3e
00000220: 00df 033e 8d9b 52bd c2c4 6bbd f761 3c3d
00000230: a3c1 d83d 1520 8b3d def9 33be aad3 8d3e
00000240: 0c3a 2e3e 128c ab3e d866 5d3e 6b19 17bd
00000250: 8bba 363e 226c ed3d e7e9 88be 4b8d a0be
00000260: d8e2 313e 2b42 4c3e c78e eb3e 1447 143f
00000270: a90f 9c3e 7a4e 053f 717b f03e 5d6f abbd
00000280: da65 9e3e eb7b 293e 2ea6 e6bd a8c9 4a3e
00000290: 5cc5 4e3e 022f 1dbb 2712 f63d 1c41 8c3e
000002a0: b5a7 03be 46c3 a7bd c5c3 36be 8f1f a4bd
000002b0: c8d1 cfba 9ccc 3d3e 40d6 fdbd a874 15bd
000002c0: 6a13 013e 7154 c9bd 0076 d7bd 74d6 0bbe
000002d0: 0ade 873c 2db3 873e 7a6c 16be 793c 0abe
000002e0: d511 7ebb d262 80bd 1e4d 49be bef2 3fbd
000002f0: e595 86be 53af 24bd ba47 e63c 020a 7f3c
00000300: 21de 69bd f8f0 a13d 5fcc 0fbd 9d90 e53d
00000310: d62b 9a3d df70 753d a751 c03d da76 8abc
00000320: f7af 6fba e131 86bc d245 5ebe b6c0 a5be
00000330: 614c 763d 97ba 063d dd99 81bb 223b 033d
00000340: e37e 17bd 03a8 5cbe 76f5 8d3d ab69 b53c
00000350: 59b7 6cbd 58b8 83bb 6332 8d3d ee17 483d
00000360: 903c 503d 5f84 153d 59e3 96bd 8623 433d
00000370: f71a fe3d 17d5 ef3d 338b 9d3e 8dab 4b3e
00000380: 315d 623d e542 0e3e c627 a0bd 14a3 00be
00000390: 4ebb 793e 79d4 933d d645 babc 61c2 da3e
000003a0: 02ce 873e 4c58 07bd 960b 953e ff47 a33d
000003b0: 550d e73b 9c91 243e a7f8 ba3d c806 6e3d
000003c0: a053 243e b88b 163e 42ab af3d f6fe 363d
000003d0: cad9 8fbd 859a ee3d 6c33 473e cfbf d43d
000003e0: 3839 e93d 36f6 56be aefd 58be 487c 59be
000003f0: 79ce 0abe b5fa a13e 5bf5 093e 207a 07be
0.13948987 0.108118184 0.1266762 0.008137835 -0.00043588394 0.021869473 0.008378708 0.010754352
0.008842628 0.09308576 0.056275643 0.0014344592 0.00091338647 -0.0026170863 -0.014308536 0.015646059
0.010514556 0.018152732 0.16527596 0.14415278 0.064205125 0.03156941 0.115964785 0.039653927
-0.0019095856 -0.013544355 -0.0006977485 0.1466896 0.025063407 0.094422214 -0.002008897 0.0028013475
-0.0063145743 0.015596319 0.006786284 0.08112815 0.04903095 0.018158313 0.01585351 -0.0024006453
0.0021309524 0.00017231189 0.004885914 0.00383498 0.00783778 0.050161578 0.034611315 0.5938995
-0.0015047062 0.0084743975 -0.015300979 0.007856932 -0.005442951 0.06254331 0.021419344 0.01859052
0.015408355 -0.00016762498 0.00043316436 0.0006526624 -0.0014607165 0.00011707272 0.00033387283 0.011068377
0.016924998 0.0068249283 0.0002027896 0.0006981009 0.00269265 -0.00026753588 0.0007667727 -0.0028202406
0.022600047 0.016264176 0.004621187 -0.0057036113 0.0041267597 0.009234198 -0.0021192625 -0.000997045
-0.0022526786 -0.00080676185 0.016563928 -0.013169557 -0.0055043413 -0.0029246798 -0.0039791097 -0.005073976
-0.0014759704 -0.0015756186 0.05677375 0.038067713 -0.0054935296 -0.005780687 0.0066368454 0.0012953404
-0.0035805288 -0.0022684592 -0.002217053 0.014767585 -0.02244871 -0.04033049 -0.0050289594 -0.0023212521
-0.0013468349 0.0039851866 -0.003163217 0.0003324437 0.12293601 0.085006215 0.07701514 -0.0029014605
0.0076648234 0.014618823 0.011237895 0.006732006 0.018991984 0.050548565 0.030189281 0.03605093
0.0040143835 0.0057762633 0.0062597566 0.007664528 -0.006810265 0.0113358805 0.13499407 0.096761435
0.033505864 -0.022217687 0.01962702 0.008512461 -0.0046936492 0.0026000005 0.005224429 0.13602304
0.12878036 -0.051417876 -0.05756069 0.045991864 0.10583808 0.067932285 -0.17575786 0.2770055
0.1701433 0.33505303 0.21621263 -0.036889475 0.17844598 0.1159289 -0.26740953 -0.31357798
0.1737169 0.19947116 0.46007368 0.57920957 0.30480698 0.5207287 0.46969178 -0.0837085
0.30937082 0.16551177 -0.11262165 0.19803488 0.20192474 -0.0023984318 0.12015181 0.27393425
-0.12856944 -0.08191542 -0.17848118 -0.08013832 -0.0015855366 0.18535084 -0.123943806 -0.036488205
0.12605062 -0.09830559 -0.105205536 -0.13656026 0.016585369 0.26503888 -0.14689818 -0.13499631
-0.0038767953 -0.062688485 -0.19658324 -0.046862356 -0.26286235 -0.040206265 0.028110374 0.015566351
-0.057096604 0.07907289 -0.035107013 0.112092234 0.07527892 0.059922095 0.09390574 -0.016902376
-0.0009143347 -0.016381206 -0.21706322 -0.3237359 0.060131434 0.03289279 -0.0039551095 0.032038815
-0.036986243 -0.21548466 0.069315836 0.022145113 -0.05779204 -0.004019778 0.06894376 0.048850946
0.050839007 0.036503192 -0.07367582 0.0476413 0.12407487 0.117105655 0.30770263 0.1988966
0.055264656 0.13892706 -0.07820086 -0.1256221 0.24387857 0.0721826 -0.022738378 0.42726424
0.2652436 -0.03304319 0.29110402 0.079727165 0.00705115 0.1607117 0.09129458 0.058111936
0.16047525 0.14701736 0.08577587 0.044676743 -0.07023962 0.11650566 0.1945321 0.10388147
0.11387867 -0.2099236 -0.21190521 -0.21238816 -0.13555326 0.31636587 0.13472502 -0.1323018

bias f4 [5]
00000000: 8f9f 3ebd b526 37be d06e e7bc 05b7 1d3e
00000010: fcad f6bc
-0.046538886 -0.1788586 -0.028251082 0.15401848 -0.03011226

weight f4 [5, 5, 3, 3, 3]
00000000: 0c3b e53d 1647 1e3e a663 983d 7f7e 2b3e
00000010: ce5d 893e 05c0 923e 8670 cb3d 0430 853e
00000020: 6aee 803e 440a b23d 2d42 abbc 8c23 ad3d
00000030: fe4b 553d ae11 9bbf da38 0dbf adee 123d
00000040: 861f b8bb 5263 a5bd 0245 853d d1a5 e03d
00000050: 8dc3 a43c 34da 083e e8f0 2cbe 21a4 a43d
00000060: 9143 f83d 2427 09bc e460 53bd dd86 e3ba
00000070: 8022 2abc 46a5 a3bb 3f21 3e3d 76d3 c23c
00000080: 23cb 1abd ca88 cc3c fa26 f1bb f642 0f3d
00000090: d075 893c e161 733d c9f0 f13c 6dfd 833d
000000a0: c95a f03c 6d58 cd3d ab93 ea3b 01e8 02bd
000000b0: c6d3 9f3d 8461 833d 2a83 673d e76f 693d
000000c0: fb7c 0d3e 3817 103e 6625 043d 3d40 023d
000000d0: 6320 45bd a199 c53d 08e7 893c 075e 203d
000000e0: 83f0 b53d 72ae c53c 1254 2d3d 5134 9b3d
000000f0: 61e1 b53c ccb7 743d f215 333d 34ae 1a3b
00000100: 5b9b 923d 1c91 b23d ec3f 6e3c d24f eb3d
00000110: 09ba 0e3e 4f9d 893c 0f14 f03c 2071 173d
00000120: 7e20 3abc 5363 943d d37d 0c3e d452 163d
00000130: 4d96 673d 7eba 563d 1b99 483d a652 693d
00000140: 8e25 b23b 48e8 8f39 3879 e63d 12b4 a1bd
00000150: 7039 033d ab82 ab3b b59d f2bd b79d bc3a
00000160: f432 6c3c 5a9e 823a 5148 9f3d ebcd c8bf
00000170: c4c1 b03e 186d d83d 4b46 683e b1c3 113e
00000180: 7277 b13c 141d 153d 5f6a 233d fe33 4ebd
00000190: 57a8 b43d 71bb 3abd 35eb 03bd 2906 333d
000001a0: 4a8b 233d a192 4abc 99c6 163d ef01 cc3c
000001b0: 4aea bcbb 6d60 5e3d 134d 163d 6393 83bd
000001c0: 0053 b03c 229e ffbc 1c86 9ebc 023d 71bb
000001d0: c828 78bd d67f 973c 4db8 033d 5731 243b
000001e0: 067b 1a3b 5b23 aa3a c1df 53bd 011f 433c
000001f0: 7529 3b3d 4b26 f0bc 5ea1 f8bc 05d9 08bd
00000200: e229 af3b 9151 87bd 3bed fabc 57d8 83bd
00000210: 91de ebbb 3412 143d 01f4 0bbd 6076 20be
00000220: a40f 733e e4fe 053e 02f4 053e 7f14 cb3d
00000230: 7251 ebbd 7f99 89bd 90f4 d8be a351 08bd
00000240: 9774 d4be 75dc e3bd 5537 13be 25c2 083e
00000250: 74c7 5e3e 256a 35be 4fb5 063d f93e 20be
00000260: 4ad6 833e 71d9 ed3d e32e b73e 26b2 db3e
00000270: b3de 92be 7802 723d 05de 5c3d 00f6 7bbe
00000280: 1399 b1be ad03 1abd 356c 14bf 4992 5dbe
00000290: 4845 4cbe 4d01 1a3e 6f45 44bd 1009 673d
000002a0: abce fa3d 931f 393e 4f9e 903e e6dc 5bbd
000002b0: 3250 e43d 334c 953e c767 08be 2269 f4bf
000002c0: 110a 43be b267 473e f446 74bf 84a6 1fbe
000002d0: 2959 c2be 67dc c33b c83f 56be 2529 1b3d
000002e0: 93af 83be b391 4dbe c149 8b3e 6a20 043c
000002f0: 9ce8 0cbf 7248 c1be 502d 8bbe b327 82be
00000300: 09fc 223e 6381 c9bc f6c6 9fbe 1c42 46be
00000310: a28d 28bd a6ce dabe 6758 703e 8673 c9be
00000320: 4212 f33e 866b 353e d3f4 7f3e c37f 1e3e
00000330: c3d4 3cbe 2a06 943e 59ec 1c3e e508 15be
00000340: bb3a db3d a285 443e 064b 263d 4614 78be
00000350: 38aa 043e fb99 3cbe 8dd7 90bd 7ff4 bcbd
00000360: 0978 7e3d 9d86 633d b446 983d 939f 2a3e
00000370: dff7 033f bb17 02be 24f5 5c3d 0048 1a3e
00000380: 11b3 743c 7426 23be 6605 9cbe 4843 b4bb
00000390: 42fa 413e 0d7e 683d 284d 02bf 1e6d 433d
000003a0: 83af c1bb 2a0d b0bd db0f 8bbc 6edd e63c
000003b0: f71c eabd f98c 5d3b 19b7 373d 4850 0ebd
000003c0: 1dca 2fbe c8b6 43be ccd6 c9bd 05a1 543e
000003d0: 1c47 ba3e aac4 5d3e db87 b2be b310 053f
000003e0: b7e8 953e 74c6 edbe 1ab0 a6be a23d 3a3d
000003f0: d94b 9c3e 383c e53d a446 e0be cc03 39be
0.11192903 0.15456805 0.074408814 0.16747473 0.2682938 0.28662124 0.099335715 0.26013196
0.25181895 0.08693364 -0.020905579 0.08454046 0.052074425 -1.211477 -0.55164874 0.03587215
-0.0056189923 -0.080755845 0.06507303 0.10969127 0.020112777 0.13364488 -0.16888773 0.080391176
0.12122262 -0.008371148 -0.051606074 -0.0017358918 -0.010384202 -0.0049940674 0.046418425 0.023782473
-0.037791383 0.02496757 -0.0073593827 0.03497597 0.01677981 0.059419516 0.02953376 0.064448215
0.029340165 0.100266315 0.0071587167 -0.031959537 0.078040645 0.06415084 0.056521572 0.056991484
0.13817208 0.14071357 0.03226223 0.031799544 -0.04812659 0.09648443 0.016833797 0.03915217
0.088837646 0.024131034 0.042316504 0.07578338 0.022202196 0.059745595 0.0437221 0.0023602368
0.07158538 0.08719084 0.014541607 0.11489834 0.13938154 0.016798643 0.02930644 0.03697312
-0.011360286 0.07245507 0.13719873 0.036700085 0.056539822 0.052423947 0.048974138 0.056963585
0.005436606 0.00027448148 0.112535894 -0.07895674 0.0320372 0.0052340827 -0.118464865 0.0014390264
0.014416445 0.0009965405 0.07777465 -1.5687841 0.3452283 0.10567683 0.22683065 0.14234807
0.021663401 0.036404684 0.039896365 -0.050342552 0.08821171 -0.045588914 -0.032206733 0.043707047
0.03992776 -0.012364061 0.03681049 0.024903266 -0.005765234 0.054291178 0.036694597 -0.06424596
0.021523952 -0.031203333 -0.019351058 -0.0036810045 -0.060585767 0.018493574 0.032158185 0.0025053823
0.0023571863 0.0012980507 -0.05172706 0.011909247 0.045693833 -0.029315135 -0.030350383 -0.03341009
0.005345569 -0.066073544 -0.030630698 -0.06437748 -0.007198163 0.036150172 -0.034168247 -0.15670156
0.23736435 0.13085514 0.13081363 0.09916019 -0.11490144 -0.0671873 -0.42374086 -0.03328098
-0.414952 -0.11126033 -0.14376576 0.1335531 0.21755773 -0.17716272 0.032887753 -0.15649022
0.25749427 0.11613739 0.3577796 0.42909354 -0.2868553 0.059084386 0.05392267 -0.2460556
-0.346871 -0.03760116 -0.5797761 -0.21637835 -0.19948304 0.15039559 -0.04791778 0.056405127
0.1224645 0.18078451 0.2824578 -0.053677462 0.111481085 0.29159698 -0.13320838 -1.9094584
-0.19046809 0.1947315 -0.95420766 -0.15590864 -0.3795865 0.0059772017 -0.20922768 0.037881035
-0.2571989 -0.20075111 0.27204707 0.008064369 -0.55042434 -0.37750584 -0.27183008 -0.25420913
0.15916456 -0.02459783 -0.31206483 -0.19361156 -0.041150697 -0.42735785 0.23471223 -0.3934595
0.47474867 0.17716798 0.24995737 0.15478425 -0.18440537 0.28910953 0.15324534 -0.14554174
0.10704561 0.19191602 0.04059889 -0.24226484 0.12955558 -0.18418114 -0.07072363 -0.092263214
0.062126193 0.0555483 0.074353606 0.16662435 0.51550096 -0.12704365 0.05394472 0.15066528
0.014935271 -0.15932637 -0.3047287 -0.0055011846 0.18943122 0.056760836 -0.5089898 0.047711484
-0.005910815 -0.08596261 -0.016975334 0.028181758 -0.11431306 0.003380595 0.04485235 -0.03474453
-0.17166944 -0.19112694 -0.098554224 0.20764549 0.36382377 0.21657053 -0.34869274 0.51978606
0.2927911 -0.4644047 -0.3255623 0.045468934 0.30526617 0.111931264 -0.43803895 -0.18067855

bias f4 [5]
00000000: 4551 983e 2f0f 683d e845 883e 4c7a 703e
00000010: 30a6 81be
0.29749504 0.056655105 0.26615834 0.23484153 -0.25322104

weight f4 [5, 5, 3, 3, 3]
00000000: f01d 15bc 4fa7 eebc eb19 e03c b7ac 953d
00000010: 60e9 9ebd 9209 063d 3aea e03e 40bd 3a3c
00000020: 6be6 b3bc 940f 6cbd efde b4bc 8353 083d
00000030: 600d f0bc ae7a ff3c 7e95 b43d 6717 953c
00000040: d3c9 5f3c 83b6 053e 9854 d9bc 0411 11bc
00000050: 4675 813d 5628 8ebd 70d4 8dbc 46b7 b33d
00000060: b167 eebc 76b3 633d de8d a13d f064 b23b
00000070: 572d 873d f524 5abd 3319 adbd 0151 5b3e
00000080: 3a8d 6f3e 79e7 b93d a62c 103e d5b7 cebc
00000090: 9d7c ff3d e5a5 1f3c 847c 7fbf e473 453e
000000a0: f619 9ebc c71c c7be 5d47 0fbc 9cc8 32be
000000b0: 5bcf 573d 23be dfbc 35c8 ec3d 33ab b8be
000000c0: 6823 a1bd eef5 713e ff94 ac3d 2ab8 f73d
000000d0: 5efb 9e3d e9d3 763d 3d2a 34bd 815f 673d
000000e0: 73d5 8a3d 6c03 3a3d 7bcf c03c fcf3 1d3d
000000f0: 0de6 953d 412f c9bd c401 57be 73f2 31bd
00000100: 89e4 233d d8b9 d8bc a4e6 0d3d 599b 16bd
00000110: 8cfa e3bd 0780 e8bd 52c8 b9be 877c 75bf
00000120: 49ba ac3b 71d1 c73d ecf1 3f3d abf4 f93c
00000130: 9473 9dbd a3eb 723d 290e 143d c03e 71bd
00000140: 8e34 bdbe 16fe 1e3d 2d5b 76bd 4a4f fb3d
00000150: b41c 083d e47d d23b 512d 9d3d 9b7b 983d
00000160: e9cd 3f3d bd31 6d3d 6712 cd3d 98ff debd
00000170: 044d d93a 1300 113c cc2f c8be ff4d 0b3d
00000180: 3de7 b63c 6a2a 41be a521 2ebe ce80 023e
00000190: 2b0e 373e cef8 54bd 0c9d 1d3d 4e56 8bbd
000001a0: adea 613c 3917 4c3d 32b1 92bd 90bb 94bd
000001b0: 6fff 25be b38b 83bd d918 4e3d 66fc 47bd
000001c0: d2dd 67bd a95b 193e d260 1cbf dc6e 09be
000001d0: 1323 573e 44af a8bd 366d 14bd 34cf b03d
000001e0: 5f42 70bd 405c f73c 6a66 663e 0834 513c
000001f0: b30d ae3d cb0d b73e 732b cfbd 588d d9bc
00000200: b42e c73d c22c 14be e5b3 18bd 4fa0 383e
00000210: d3e7 afbd 2301 9a3d 20e4 fa3d 5a61 c0be
00000220: aceb 77be 90f7 60be c021 173e a2f7 58be
00000230: 489a 69bd 780c fabf bbae 8bbd 5a1c 9e3d
00000240: 2737 3dbe b121 febd a8b5 9bbe fb16 4f3e
00000250: 6c52 833e 0c82 3b3d 7bc6 0f3c 0adf f03e
00000260: c23a f7bd ccfe 9a3c c656 cbbc 1c3a b6bd
00000270: d260 123a 075a 1f3e a221 de3d 7565 223d
00000280: dfc2 233c afaa 0b3d 7f29 c6be bf04 d4bd
00000290: 287e 263f bd4b 203e 7892 05bd 927a d63e
000002a0: b8dc 863e 36d2 d2bd db50 1abe 8feb 3ebe
000002b0: 6116 8e3e 1630 8b3e 75c7 42bd 256b 3a3e
000002c0: 6d7b 763f bfd4 46bd 9ef1 e9be 232d 64be
000002d0: 9ced 0bbe f158 9b3e 500b ce3e 2a25 6f3d
000002e0: 945f 373e 96fd e93e dee0 dcbd 2ccb 31bf
000002f0: f018 35be 1256 22bf ead1 e6be d446 a53e
00000300: 851b 143d ee77 483f 68c2 0b3f 3192 e6bd
00000310: 4ac9 8b3e a49a 993e a60c c53e 53fd 643e
00000320: 81ff 4e3e ea45 e7bc a987 ac3f a065 bdbd
00000330: 8168 283f b51a 103f a4a2 fc3d 71d8 323f
00000340: da98 283f 9578 703f 3158 b53d 91e1 393f
00000350: 5454 6abe fc36 7c3e 9d5b cb3e cf4b eebe
00000360: 7cd0 8f3e 3f70 963e d1e5 aa3e bf95 db3e
00000370: a251 503e d206 793e fbb7 1a3e e4c7 113e
00000380: 2f98 4bbe bc84 273f 2862 873e 9be6 02bf
00000390: a392 0d3f bbd9 ca3e e8a3 733e 2bf2 173e
000003a0: dc66 ec3e 7338 f23a 8db0 8f3e 367f b43e
000003b0: 69e0 5e3f 7e3e e13e a75a d43e f470 3d3d
000003c0: 4679 7d3e d524 dd3e 044a 0bbf 8373 27be
000003d0: 1498 64be 2aa3 b2be 8570 81be 95d4 993d
000003e0: ed57 4cbe ec3a 103f 3d59 7c3e b707 b1be
000003f0: 3758 9d3e b46f c13c 065f b8be 26ac 20be
-0.009101376 -0.029132513 0.027356109 0.07308333 -0.077593565 0.03272397 0.439287 0.01139766
-0.021960458 -0.057632044 -0.02207896 0.033282768 -0.029303253 0.031186428 0.08817576 0.018199636
0.0136589585 0.13057904 -0.026529595 -0.0088541545 0.06321196 -0.06941287 -0.017313212 0.08775191
-0.029102178 0.05559107 0.07888387 0.0054441616 0.06600445 -0.0532579 -0.08452072 0.2141762
0.23393717 0.09077353 0.14079532 -0.025234142 0.1247494 0.009744142 -0.9979937 0.1928249
-0.019299489 -0.38889143 -0.008745042 -0.17459339 0.052687984 -0.027312344 0.11561624 -0.36068115
-0.07868081 0.23628971 0.08426856 0.120956734 0.07762788 0.060260687 -0.043985594 0.056487564
0.067789935 0.04541342 0.023536434 0.03856276 0.07319269 -0.09823466 -0.20996767 -0.04344411
0.04001287 -0.026455805 0.034643784 -0.036769245 -0.111317724 -0.11352544 -0.36285645 -0.9589314
0.0052712304 0.09756745 0.046861574 0.030512175 -0.076880604 0.059306752 0.036146317 -0.058897734
-0.3695416 0.038816534 -0.060145546 0.122709826 0.0332305 0.0064236987 0.07674659 0.07445451
0.04682723 0.057908762 0.100132756 -0.108885944 0.0016578739 0.008850115 -0.39098966 0.03400993
0.02232706 -0.18863836 -0.17005022 0.12744448 0.17876498 -0.05199509 0.03847985 -0.06803571
0.013788861 0.049826834 -0.071627036 -0.07262337 -0.16210721 -0.0642313 0.050316665 -0.04882469
-0.05660803 0.14976372 -0.61085236 -0.13421196 0.21009474 -0.08236554 -0.036236964 0.08633271
-0.058657046 0.030195355 0.22500005 0.012768753 0.08498707 0.3575271 -0.10115709 -0.026556656
0.09725705 -0.14470199 -0.037280936 0.18029903 -0.08589139 0.07519748 0.12250543 -0.37574273
-0.24210995 -0.21969438 0.14758968 -0.21188214 -0.0570319 -1.9535055 -0.068204366 0.077202514
-0.1847807 -0.1240877 -0.3041203 0.2022361 0.2564882 0.04577832 0.008775349 0.47045165
-0.12071754 0.018920325 -0.02482165 -0.08897802 0.00055838854 0.15561686 0.10846259 0.03964754
0.009995191 0.034098323 -0.38703534 -0.10352468 0.6503625 0.15653892 -0.032610387 0.4189039
0.2634027 -0.10294001 -0.15069906 -0.18644546 0.2775145 0.27185124 -0.0475535 0.18204935
0.9628208 -0.048542734 -0.45692152 -0.22282843 -0.1366486 0.30341294 0.40243006 0.05838505
0.17907554 0.45701283 -0.107850775 -0.6945064 -0.17685294 -0.6341258 -0.45082027 0.322806
0.036159057 0.78308 0.54593515 -0.112583525 0.2730201 0.30000794 0.38486212 0.2236226
0.20214655 -0.02823158 1.34789 -0.09247899 0.6578446 0.5629075 0.12335709 0.69861513
0.6585823 0.93933994 0.08854712 0.7260981 -0.22883731 0.2463035 0.39718333 -0.46542212
0.28088748 0.29382512 0.3337846 0.42887685 0.2034364 0.24319008 0.15109245 0.14236408
-0.19882272 0.6543691 0.26442075 -0.51133126 0.55301875 0.3961924 0.23792994 0.14838473
0.46172225 0.0018479958 0.28064385 0.35253304 0.8706117 0.4399299 0.41475412 0.0462503
0.24753293 0.43192163 -0.54409814 -0.16352658 -0.22323638 -0.3489011 -0.25281158 0.0751125
-0.19955416 0.5633991 0.24643417 -0.34576198 0.30731365 0.023612835 -0.36009997 -0.1569067

bias f4 [5]
00000000: cf29 36be 5c49 143e 1d1a b1be 829d 193f
00000010: 7b67 ca3e
-0.17789386 0.1448111 -0.34590235 0.6000596 0.39532074

weight f4 [5, 5, 3, 3, 3]
00000000: 9ce7 1b3d bc93 543e acd7 223e 0ae3 9fbd
00000010: f37c 69bc 8f42 313e c35e 603c 893b a0bd
00000020: 6f8b 63be b966 313e 1839 afbe 9f95 b23d
00000030: 8620 f2bc 335c c6be 5bb3 b43e 2569 79bd
00000040: f84a 1dbd 1e9b 0bbc 4732 a13a 228f bd3d
00000050: c0df 173e 1a69 5f3d a6a0 0a3e bb77 ef3c
00000060: 9d8b 52bd cd8a 51bd 67f9 08be 74c4 823e
00000070: ab5d e23d b636 4e3e 1375 1b3e 6802 cc3e
00000080: 23f9 563e e5b7 95bd dd2e c23d ab89 733d
00000090: 1636 473e 1ce2 d43e 5118 b33e a60d 993d
000000a0: b7c8 563e 2740 ef3e a894 b0bd abc2 5e3d
000000b0: e49a 153e f314 a53d 6c60 6a3d b9ee 153e
000000c0: 9f42 293c d99f 523e ab62 8b3d b1f4 4ebd
000000d0: c2ce 51bc 2abf 79bd 6e72 c73e caf9 603d
000000e0: 39e0 8bbd d3bb d03b 0437 e83c 9719 d3bd
000000f0: 9f77 0c3d 164e 283d e33a 5bbd f2dc 71bd
00000100: 2571 6d3d 623f a2bd 44f0 c5bd 47f8 473e
00000110: f96b 2bbd cf11 3fbd 9215 86bd 6695 883d
00000120: 39fb cc3d 40e9 263d 4920 97bd 72b1 eebc
00000130: b21a 07be 42cf 8fbc 7636 44bd ea37 283b
00000140: 80dd a1bd 8c95 f13d b4a8 c23e 351e 98be
00000150: e281 3a3e c0ea fc3d 44d7 0a3d 137c 42be
00000160: 3f02 363d 43d9 c43c a41a 5c3e 2afb b1bd
00000170: 7695 84be ff84 223e abc2 3cbf a392 f4bc
00000180: c878 91be 61cf 3f3c 2605 243e 6ed5 4a3c
00000190: 9981 2c3e 0315 6d3c 27cd 1abd ad9f b63e
000001a0: 34ba 0a3e 4dfb c0bd 8fd9 41bd d1c8 13bd
000001b0: cabb 53c0 1a9d f5bf 053e 13c0 37fb 46c0
000001c0: 598e afbf 0952 07c0 aebf 0ac0 e4a5 15c0
000001d0: 385b 1ac0 c576 5cc0 54de 73bf b4e0 e7bf
000001e0: bf66 5cc0 e5c1 d63f 0a67 c8bf 93b1 c9c0
000001f0: bed4 a5c0 9879 ecc0 d2e9 13c0 6603 57c0
00000200: 8083 41c0 9e7f 49c0 f2a0 ccbf 4f9d 15c0
00000210: 2304 d3bf 2bef fdbf a2f0 20bf 4231 21be
00000220: c7aa 9ebd e546 9bbe a993 ae3d a030 cebc
00000230: 2500 88bd 9591 da3e 363e 3b3e f483 babd
00000240: 70f4 7bbd ed32 54bb 1c34 64be 075d b43d
00000250: 0be7 bbbb 299a 7b3d 2a05 b93e 9549 1c3e
00000260: a1d4 9bbd 098e 72bd cecb 773c 6b05 b3bd
00000270: 5238 eb3d fc2e ef3d 5fd5 ddbd 9401 b03e
00000280: 3a59 7a3d 8fae 87bd 1929 ec3c 3b48 333d
00000290: 00eb 4ebe b5c8 6abd f1e1 e43d 9afe 3f3e
000002a0: de44 8abc a255 42bd f267 dd3b 89c7 0a3d
000002b0: 38e5 0ebd fa8d d3be b585 65bd 0ece a13d
000002c0: e35d 053e 6d2b 46bd 91f6 5cbd a286 62bd
000002d0: e156 d03c 6109 823c 5ee5 e1bc fc4d d7bd
000002e0: 3f8a 5d3b 2f43 05bd 2757 0fbd d85b 02be
000002f0: 5023 28be 53f8 063f 8aae 3cbd 26e7 9a3d
00000300: 1d15 f3bb 236b 03bd 558d 893d 7ffa ca3d
00000310: 77a4 7fbc 8c88 ba3d b2ac b2bf 2f96 ab3d
00000320: 2ef0 a23d 427b d9bd b5ba a7bc ca67 143d
00000330: f10e 02bd b338 32bc ccf6 673d 4784 10be
00000340: f554 44bc c6c8 5a3d 3080 11be 2291 76bb
00000350: 102e 953d 2f45 18bd 8649 9ebc f7db d03d
00000360: e3ae 8e3d 09c0 563e 4577 c83e b09f 63bd
00000370: 92c1 a3bd eaa2 00be c44a e8be fe93 45be
00000380: 544d cbbd 4530 cabc ef15 933e 36a5 493f
00000390: 0303 e0bd 796a 41bc de83 4b3d 65a0 cfbe
000003a0: d275 36be 6991 343d 4ca6 633d c7d6 bb3c
000003b0: be24 703d df8c 05be 2e60 94bd 55d7 513e
000003c0: 0771 d3be 24ec bcbd 5ee9 713d a73c d43c
000003d0: 19cc 07bd 1032 28bf 734e 8abd 22a0 813c
000003e0: adf4 63bd 2750 e0bd 344f d83a a1de 1a3d
000003f0: dacc f23c 98f4 433d e813 61bf e321 55bd
0.038062677 0.20759481 0.15902585 -0.07806976 -0.014250982 0.17310546 0.013694468 -0.078238554
-0.22221158 0.17324342 -0.34223247 0.08719944 -0.029556524 -0.38742217 0.35293087 -0.06089129
-0.038401574 -0.00852087 0.0012298309 0.09255816 0.14831448 0.054543592 0.13537845 0.029231897
-0.051402677 -0.05115776 -0.1337639 0.25540507 0.11053022 0.20138058 0.15181379 0.39845586
0.20993476 -0.07310466 0.09481595 0.059457462 0.19454226 0.41578758 0.3497949 0.07473306
0.20975004 0.46728632 -0.08622104 0.05438487 0.14609867 0.08060636 0.05722086 0.14641847
0.010330825 0.2056879 0.06805929 -0.050526325 -0.012805643 -0.060973324 0.3895449 0.054925717
-0.068298765 0.0063700466 0.028346546 -0.10307615 0.034293767 0.041090094 -0.053522956 -0.0590486
0.05796923 -0.079222456 -0.09664968 0.19528304 -0.041851018 -0.046647843 -0.06547083 0.066691205
0.100088544 0.04074979 -0.07379205 -0.029137347 -0.13193777 -0.017554883 -0.0479035 0.0025668093
-0.07903576 0.11796102 0.38019335 -0.29710546 0.18213609 0.123494625 0.0338967 -0.18992643
0.044435736 0.02402938 0.21494538 -0.08690484 -0.2589528 0.15871046 -0.7373454 -0.029855078
-0.2841246 0.011707158 0.16017589 0.012379987 0.16846313 0.014470342 -0.037793305 0.35668698
0.13547593 -0.09422932 -0.04732662 -0.036080185 -3.3083367 -1.9188569 -2.3006604 -3.109083
-1.3715316 -2.114382 -2.1679492 -2.3382502 -2.4118176 -3.444749 -0.9526112 -1.8115449
-3.4437711 1.6777922 -1.5656445 -6.3029265 -5.1822195 -7.389843 -2.3111463 -3.3595824
-3.0236511 -3.1484141 -1.5986617 -2.3377264 -1.6485637 -1.9838613 -0.62867177 -0.15741447
-0.07747417 -0.30327526 0.08524258 -0.02516967 -0.066406526 0.42689195 0.1828545 -0.09107199
-0.06151241 -0.0032378987 -0.22285503 0.08806806 -0.0057343296 0.061426315 0.36136752 0.15262444
-0.07608915 -0.059217487 0.015124274 -0.08741268 0.114853516 0.116788834 -0.10831713 0.34376204
0.06112025 -0.06625091 0.02882819 0.043770056 -0.20206833 -0.057320315 0.111759074 0.18749467
-0.016878542 -0.047444947 0.006756776 0.033881698 -0.03488657 -0.41319257 -0.056035716 0.0790063
0.13024096 -0.048381258 -0.05394608 -0.055304177 0.025432052 0.015873613 -0.027575191 -0.10512921
0.0033804325 -0.032534774 -0.034995224 -0.12730348 -0.1641972 0.5272266 -0.04606489 0.07563619
-0.0074182884 -0.032084595 0.0671641 0.099110596 -0.015603176 0.091080755 -1.3958952 0.083782546
0.07955967 -0.10619213 -0.020474771 0.036231793 -0.03175253 -0.010877776 0.05663185 -0.1411296
-0.011983146 0.05341413 -0.14209056 -0.0037623127 0.07284176 -0.037175354 -0.019322168 0.10198205
0.06966951 0.20971693 0.39153495 -0.05557221 -0.07995905 -0.12562147 -0.45369542 -0.19294736
-0.099268585 -0.02468122 0.28727672 0.78767717 -0.109380744 -0.01180517 0.049686305 -0.4055206
-0.17818382 0.044083986 0.055578515 0.022929562 0.05862879 -0.1304202 -0.07244907 0.20492299
-0.4129717 -0.09224728 0.059060447 0.025907828 -0.033153627 -0.6570139 -0.06753244 0.015823428
-0.055653263 -0.10952788 0.0016503097 0.03780997 0.029638696 0.047840685 -0.87921 -0.05203427

bias f4 [5]
00000000: e411 b13d 5395 1a3e 0196 aa3e a388 8cbe
00000010: e828 a83e
0.086459905 0.15096025 0.3331757 -0.27447996 0.3284371

weight f4 [5, 5, 3, 3, 3]
00000000: afc6 dcbd d3a3 eb3b 2ace fcbe e4ce d3bd
00000010: deab 3bbe 5c8e 19be 5a00 1bbd aa90 ebbd
00000020: eed4 a8be 762e 80bd a2cf 0dbe 32ac 343d
00000030: fc33 3abd 73ae 13bd 500a 12be d4c9 f3bc
00000040: cf71 26be 66ed cdbd b7d7 0f3d fcc6 2e3b
00000050: 5034 f7bc 2ded 7d3c f4e2 26bd deda 5c3d
00000060: 1625 0a3d b899 02bd 8152 533d 8bb0 ab3d
00000070: 2dad 583d f41b b13d e21e 733d 875b 963c
00000080: 7517 87bc 28a3 ae3d 095f e5bd b564 a23d
00000090: f95b 5d3e ac68 d43d b321 543d a1da 863c
000000a0: 0d8e 4839 fead 1a3d db74 85be a27a 94bd
000000b0: d255 053d 85db 013e 36b1 8d3d 6642 ef3c
000000c0: 5a91 96bc 78d0 8d3d 9dd3 3dbc 515d 393e
000000d0: 8188 13bc 8dcc 3e3d b8d2 223e 7527 b53d
000000e0: c970 79bc d0dd 14bf 5db9 39be 0692 d63c
000000f0: a5f6 99be 5045 b9bd 15eb b03c 82f4 e03d
00000100: 1e51 d03c 814b 703c 3a0c 34be 5fd1 d53b
00000110: e1e8 9b3c 4430 09be df1e 683c 286a cf3c
00000120: c749 663d ba10 18ba e401 01bb 6459 873d
00000130: 560e 703c a4af 153c bb2a 5b3d 222d 563b
00000140: 664f 0d3c 804e 00bd 8323 e2bc 3cf5 973c
00000150: 2634 4cbf f8c2 043e 1c01 873c 24e8 3abf
00000160: 0b0c 76be 92ad b53a dd1a 0dbc 3f85 d63c
00000170: 23a9 3f3b 9a39 34bd 749d 0e3c febc d43c
00000180: b7fa 40bd 89e4 a13b 53d8 59bc b7d5 f73c
00000190: 0ddc a63c 4b16 1d3c 5d9a 1f3d 4d4d 893c
000001a0: fc3f d1bc d7e9 fb3b fa8a a4bc 84b8 b5bb
000001b0: fde7 abbe 61f4 ad3b 0953 66bc 584a f6bd
000001c0: fc40 0abd b98d e4bb f84d 32bb 1863 c93c
000001d0: 3ea9 d8bc 5e40 1dbe 95a6 8bbd 6bc5 df3c
000001e0: 4bb7 073c a7ab 24bd e520 2abc 51a1 c3bc
000001f0: 0479 80bc c5a4 aabb c7c3 243e fb3b 833d
00000200: 634d 6c3d 3ce0 d13c 6908 95bb 83d9 c8bb
00000210: 1c84 3b3d f1e2 0f3c 00a1 3f3c cb10 08bd
00000220: 5b92 9dbd d7f2 3abd 61e8 e1bd f2bd cd3c
00000230: 09f2 73be e3ab b73c 0c80 ce3c f89b 6f3d
00000240: eb7f f53b 5dde 34bd 617a 45bd b7c4 ad3c
00000250: e891 aabd 1b75 bf3a 0322 ca3c bfd1 163c
00000260: 109e 9e3c 53d6 c8bc 9113 ea3c a884 24bd
00000270: b368 99bd df0e 4b3c c396 f9bc 1f3b 11bd
00000280: e023 8f3c ae3e 163c 7ca5 c63d d2d4 553c
00000290: e43f 8ebb 4ad9 1fbe fe01 963c 12f4 c6bb
000002a0: 5169 d4ba bf4b 7e3d 2684 92bc 5c8f 4cbd
000002b0: c9f8 05bc f91c 0d3c 3d29 3ebe 7ddc 64bc
000002c0: 3c8a f2bc a022 cb3d 2330 dd38 d165 bfbc
000002d0: 5b83 8cbd dec5 c9bb 5558 a9bc d912 33bc
000002e0: 9af1 acbd fbf8 13bc cda2 5dbd c33b 5d3a
000002f0: 23b4 32bd 8935 243e cf04 a83d 865b e23c
00000300: 4684 21c0 f30b 86bc a8b9 a13d 63c1 61bd
00000310: ba2d 373d 0498 463d 06b6 803d 8d99 b53c
00000320: df59 2bbc a7a1 3cbd f536 0bbc 2d59 b53c
00000330: 979e 713d 8396 813c 6eae 42bc c33d ff3c
00000340: eb66 213c 2a23 803b 89d3 9a3d 467a d63c
00000350: 0529 70ba c58c 1d3d 2a6f cf3c 115e 993b
00000360: 9440 b8bd c387 14be 23be b93c e0f3 c53f
00000370: 6aa8 5ebe 9477 6bbd 6c5d 8a3d df4f c93c
00000380: ebc2 ccbc 5364 d3bd 5023 e9bb 244f 063d
00000390: 806b 5fbc 1969 b8bd e572 6839 3836 943c
000003a0: aeb2 213d 0cd4 563a 5900 6bbd fbe7 7abb
000003b0: 68b7 8fbc f6ad 56bd 9a4e 85bc fc00 1dbd
000003c0: ecad ddbc 70fc 84bb 2cb1 b4bc a424 9dbe
000003d0: 2cba 2cbe 5a6b bcbb 09e9 1dbd 2ce5 943b
000003e0: 28bf 80bc 661f 0f3c 69f0 923c 5902 4bbb
000003f0: c013 3abe 7b25 9abd 9bf9 2abb e22d 6e3d
-0.107800834 0.00719116 -0.4937604 -0.10342196 -0.18327281 -0.14995712 -0.037842132 -0.11502202
-0.32974952 -0.06258862 -0.13848737 0.04410953 -0.045459732 -0.03605504 -0.14261746 -0.029759325
-0.16254352 -0.10055046 0.03511783 0.0026668897 -0.030176312 0.015498442 -0.040743783 0.053919666
0.033726774 -0.03188488 0.051592354 0.08383282 0.05289953 0.0864791 0.059355624 0.01835419
-0.016490677 0.08527213 -0.11199767 0.079293646 0.21617116 0.10371527 0.05178995 0.016461672
0.00019126404 0.037763588 -0.26065716 -0.07249953 0.032552548 0.12681396 0.06918566 0.029206466
-0.018379856 0.06924528 -0.011586097 0.18102004 -0.009004713 0.046581794 0.15900695 0.088454165
-0.015224644 -0.5815096 -0.18137117 0.026192676 -0.30070987 -0.090464234 0.02159647 0.10984136
0.025429305 0.014666439 -0.17582789 0.006525203 0.019031944 -0.13397318 0.0141675165 0.025319174
0.056222703 -0.00058008323 -0.0019684965 0.06608847 0.014651855 0.009136114 0.053507548 0.003268071
0.008624887 -0.031324863 -0.027604824 0.018549554 -0.7976707 0.12965 0.016480021 -0.7301047
-0.24028032 0.0013860932 -0.008612362 0.026186584 0.00292451 -0.044000246 0.008704532 0.025969025
-0.0471141 0.0049405736 -0.013296205 0.030253274 0.0203686 0.009587835 0.03896557 0.016760493
-0.025543205 0.007687788 -0.0200858 -0.0055456776 -0.3357543 0.0053086733 -0.014057883 -0.12025899
-0.03375338 -0.0069749025 -0.0027207118 0.024583384 -0.026447888 -0.15356585 -0.068188824 0.027315816
0.008283447 -0.040202763 -0.010383819 -0.023880633 -0.015682705 -0.0052076303 0.16090308 0.06407925
0.05769099 0.025619619 -0.0045481217 -0.006129445 0.045780286 0.008782134 0.0116961 -0.03321914
-0.07693931 -0.045641746 -0.11030651 0.025114987 -0.23822798 0.02242083 0.025207542 0.058498353
0.0074920557 -0.044157375 -0.048212413 0.021211965 -0.08328611 0.0014607044 0.024674421 0.009205281
0.01936248 -0.02451626 0.028573783 -0.040165573 -0.07490673 0.012393682 -0.030467397 -0.035456773
0.017473161 0.009170217 0.096995324 0.013051229 -0.0043411124 -0.15610233 0.018311497 -0.006071576
-0.0016205703 0.062083956 -0.017885279 -0.049941406 -0.008176991 0.008612865 -0.18570419 -0.013968584
-0.02960693 0.099187136 0.00010547067 -0.02336398 -0.068609916 -0.006157621 -0.020672003 -0.010929787
-0.08444519 -0.00903153 -0.054110337 0.0008439386 -0.043628823 0.16036047 0.08204042 0.027631532
-2.5236983 -0.01636312 0.07896739 -0.05511607 0.044721343 0.048484817 0.06284718 0.022167945
-0.010458439 -0.0460526 -0.0084969895 0.022137249 0.058989134 0.01581884 -0.011882408 0.03115738
0.009851198 0.003910442 0.075598784 0.026181351 -0.0009161386 0.038464326 0.025321562 0.004680403
-0.08996692 -0.14504914 0.022673672 1.546505 -0.21743932 -0.057487085 0.067561 0.024574218
-0.024995288 -0.1032187 -0.0071148053 0.032790318 -0.01363647 -0.09004421 0.00022168046 0.01809226
0.039477043 0.00081950496 -0.05737338 -0.0038285244 -0.01754351 -0.052411996 -0.016272832 -0.038331017
-0.027060471 -0.004058413 -0.022057138 -0.30692017 -0.16867894 -0.005750102 -0.038552318 0.004543921
-0.01571615 0.008735513 0.017936902 -0.003097674 -0.18171597 -0.0752668 -0.0026088718 0.058149226

bias f4 [5]
00000000: 5600 4e3f bf7f 1c3f 09a6 7f3e a1bd a8bd
00000010: 6b96 583e
0.8046926 0.61132425 0.24965681 -0.08239294 0.2115113
